…
reate model. model = Model(inputs, outputs, name=&#39;van&#39;) return model . The smallest model in terms of parameters is TinyVAN, which we create as follows: . model = create_VAN(embed_dims=(32, 64, 160, 256), mlp_ratios=(8, 8, 4, 4), depths=(3, 3, 5, 2)) . tf.keras.utils.plot_model(model, rankdir=&#39;LR&#39;, show_shapes=True) . model.summary() . Model: &#34;van&#34; _________________________________________________________________ Layer (type) Output Shape Param # ================================================================= image (InputLayer) [(None, 224, 224, 3)] 0 stage_0 (Stage) (None, 56, 56, 32) 80384 stage_1 (Stage) (None, 28, 28, 64) 286528 stage_2 (Stage) (None, 14, 14, 160) 1608480 stage_3 (Stage) (None, 7, 7, 256) 1880832 avg_pool (GlobalAveragePool (None, 256) 0 ing2D) head (Dense) (None, 2) 514 pred (Activation) (None, 2) 0 ================================================================= Total params: 3,856,738 Trainable params: 3,849,314 Non-trainable params: 7,424 _________________________________________________________________ . Training . The authors trained the VAN model for various vision tasks (e.g. classification or object detection). They trained the model during 310 epochs using AdamW optimizer with mome
…
t;)(representation) # Create model model = Model(inputs=inputs, outputs=output) return model . . Note: In our case we are using only one stage of Swin Transformer blocks. In the original paper, there are 4 of those stages. . model = create_SwinTransformer(2) . model.summary() . Model: &#34;model_3&#34; _________________________________________________________________ Layer (type) Output Shape Param # ================================================================= input_21 (InputLayer) [(None, 224, 224, 3)] 0 patch_partition_21 (PatchPa (None, None, 48) 0 rtition) linear_embedding_22 (Linear (None, 3136, 96) 305760 Embedding) swin_transformer_block_65 ( (None, 3136, 96) 112232 SwinTransformerBlock) swin_transformer_block_66 ( (None, 3136, 96) 112232 SwinTransformerBlock) patch_merging_15 (PatchMerg (None, 784, 192) 73728 ing) global_average_pooling1d_3 (None, 192) 0 (GlobalAveragePooling1D) dense_344 (Dense) (None, 2) 386 ================================================================= Total params: 604,338 Trainable params: 604,338 Non-trainable params: 0 _________________________________________________________________ . That&#39;s all folks . I hope you enjoyed this article, feel free to leave a comment or reach out on twitter @bachiirc .",
            "url": "https://dzlab.github.io/notebooks/tensorflow/vision/classification/2022/02/27/Swin_Transfomer.html",
…
ion. . EPOCHS = 12 optimizer = Adam(learning_rate=1e-3, decay=1e-3 / EPOCHS) model = create_model(INPUT_DIM, INPUT_DIM, 3) model.compile(loss=&#39;mse&#39;, optimizer=optimizer) . You can see how the model is small but astonishly it will be able to achieve great results once trained for enough time, we will train it for 12 epochs . model.summary() . Model: &#34;model&#34; _________________________________________________________________ Layer (type) Output Shape Param # ================================================================= input_1 (InputLayer) [(None, 33, 33, 3)] 0 conv2d (Conv2D) (None, 25, 25, 64) 15616 re_lu (ReLU) (None, 25, 25, 64) 0 conv2d_1 (Conv2D) (None, 25, 25, 32) 2080 re_lu_1 (ReLU) (None, 25, 25, 32) 0 conv2d_2 (Conv2D) (None, 21, 21, 3) 2403 ================================================================= Total params: 20,099 Trainable params: 20,099 Non-trainable params: 0 _________________________________________________________________ . tf.keras.utils.plot_model(model, show_shapes = True, rankdir=&#39;LR&#39;) . Create a callback that saves the model&#39;s weights . checkpoint_path = &quot;training/cp.ckpt&quot; checkpoint_dir =
…
