…
ion. . EPOCHS = 12 optimizer = Adam(learning_rate=1e-3, decay=1e-3 / EPOCHS) model = create_model(INPUT_DIM, INPUT_DIM, 3) model.compile(loss=&#39;mse&#39;, optimizer=optimizer) . You can see how the model is small but astonishly it will be able to achieve great results once trained for enough time, we will train it for 12 epochs . model.summary() . Model: &#34;model&#34; _________________________________________________________________ Layer (type) Output Shape Param # ================================================================= input_1 (InputLayer) [(None, 33, 33, 3)] 0 conv2d (Conv2D) (None, 25, 25, 64) 15616 re_lu (ReLU) (None, 25, 25, 64) 0 conv2d_1 (Conv2D) (None, 25, 25, 32) 2080 re_lu_1 (ReLU) (None, 25, 25, 32) 0 conv2d_2 (Conv2D) (None, 21, 21, 3) 2403 ================================================================= Total params: 20,099 Trainable params: 20,099 Non-trainable params: 0 _________________________________________________________________ . tf.keras.utils.plot_model(model, show_shapes = True, rankdir=&#39;LR&#39;) . Create a callback that saves the model&#39;s weights . checkpoint_path = &quot;training/cp.ckpt&quot; checkpoint_dir =
…
